…
no_lsgan: False
norm: instance
output_nc: 3
phase: train
pool_size: 50
print_freq: 100
resize_or_crop: crop
save_epoch_freq: 5
save_latest_freq: 5000
serial_batches: False
skip: 1.0
syn_norm: True
tanh: False
use_avgpool: 0
use_mse: False
use_norm: 1.0
use_wgan: 0.0
vgg: 1.0
which_direction: AtoB
which_epoch: latest
which_model_netD: basic
which_model_netG: sid_unet_resize
-------------- End ----------------
CustomDatasetDataLoader
dataset [UnalignedDataset] was created
#training images = 799
single
---------- Networks initialized -------------
DataParallel(
  (module): Unet_resize_conv(
    (conv1_1): Conv2d(3, 32, kernel_size=(3, 3), stride=(1, 1), padding=(1, 1))
    (LReLU1_1): LeakyReLU(0.2, inplace)
    (bn1_1): BatchNorm2d(32, eps=1e-05, momentum=0.1, affine=True)
    (conv1_2): Conv2d(32, 32, kernel_size=(3, 3), stride=(1, 1), padding=(1, 1))
    (LReLU1_2): LeakyReLU(0.2, inplace)
    (bn1_2): BatchNorm2d(32, eps=1e-05, momentum=0.1, affine=True)
    (max_pool1): MaxPool2d(kernel_size=(2, 2), stride=(2, 2), dilation=(1, 1), ceil_mode=False)
    (conv2_1): Conv2d(32, 64, kernel_size=(3, 3), stride=(1, 1), padding=(1, 1))
    (LReLU2_1): LeakyReLU(0.2, inplace)
    (bn2_1): BatchNorm2d(64, eps=1e-05, momentum=0.1, affine=True)
    (conv2_2): Conv2d(64, 64, kernel_size=(3, 3), stride=(1, 1), padding=(1, 1))
    (LReLU2_2): LeakyReLU(0.2, inplace)
    (bn2_2): BatchNorm2d(64, eps=1e-05, momentum=0.1, affine=True)
    (max_pool2): MaxPool2d(kernel_size=(2, 2), stride=(2, 2), dilation=(1, 1), ceil_mode=False)
    (conv3_1): Conv2d(64, 128, kernel_size=(3, 3), stride=(1, 1), padding=(1, 1))
    (LReLU3_1): LeakyReLU(0.2, inplace)
    (bn3_1): BatchNorm2d(128, eps=1e-05, momentum=0.1, affine=True)
    (conv3_2): Conv2d(128, 128, kernel_size=(3, 3), stride=(1, 1), padding=(1, 1))
    (LReLU3_2): LeakyReLU(0.2, inplace)
    (bn3_2): BatchNorm2d(128, eps=1e-05, momentum=0.1, affine=True)
    (max_pool3): MaxPool2d(kernel_size=(2, 2), stride=(2, 2), dilation=(1, 1), ceil_mode=False)
    (conv4_1): Conv2d(128, 256, kernel_size=(3, 3), stride=(1, 1), padding=(1, 1))
    (LReLU4_1): LeakyReLU(0.2, inplace)
    (bn4_1): BatchNorm2d(256, eps=1e-05, momentum=0.1, affine=True)
    (conv4_2): Conv2d(256, 256, kernel_size=(3, 3), stride=(1, 1), padding=(1, 1))
    (LReLU4_2): LeakyReLU(0.2, inplace)
    (bn4_2): BatchNorm2d(256, eps=1e-05, momentum=0.1, affine=True)
    (max_pool4): MaxPool2d(kernel_size=(2, 2), stride=(2, 2), dilation=(1, 1), ceil_mode=False)
    (conv5_1): Conv2d(256, 512, kernel_size=(3, 3), stride=(1, 1), padding=(1, 1))
    (LReLU5_1): LeakyReLU(0.2, inplace)
    (bn5_1): BatchNorm2d(512, eps=1e-05, momentum=0.1, affine=True)
    (conv5_2): Conv2d(512, 512, kernel_size=(3, 3), stride=(1, 1), padding=(1, 1))
    (LReLU5_2): LeakyReLU(0.2, inplace)
    (bn5_2): BatchNorm2d(512, eps=1e-05, momentum=0.1, affine=True)
    (deconv5): Conv2d(512, 256, kernel_size=(3, 3), stride=(1, 1), padding=(1, 1))
    (conv6_1): Conv2d(512, 256, kernel_size=(3, 3), stride=(1, 1), padding=(1, 1))
    (LReLU6_1): LeakyReLU(0.2, inplace)
    (bn6_1): BatchNorm2d(256, eps=1e-05, momentum=0.1, affine=True)
    (conv6_2): Conv2d(256, 256, kernel_size=(3, 3), stride=(1, 1), padding=(1, 1))
    (LReLU6_2): LeakyReLU(0.2, inplace)
    (bn6_2): BatchNorm2d(256, eps=1e-05, momentum=0.1, affine=True)
    (deconv6): Conv2d(256, 128, kernel_size=(3, 3), stride=(1, 1), padding=(1, 1))
    (conv7_1): Conv2d(256, 128, kernel_size=(3, 3), stride=(1, 1), padding=(1, 1))
    (LReLU7_1): LeakyReLU(0.2, inplace)
    (bn7_1): BatchNorm2d(128, eps=1e-05, momentum=0.1, affine=True)
    (conv7_2): Conv2d(128, 128, kernel_size=(3, 3), stride=(1, 1), padding=(1, 1))
    (LReLU7_2): LeakyReLU(0.2, inplace)
    (bn7_2): BatchNorm2d(128, eps=1e-05, momentum=0.1, affine=True)
    (deconv7): Conv2d(128, 64, kernel_size=(3, 3), stride=(1, 1), padding=(1, 1))
    (conv8_1): Conv2d(128, 64, kernel_size=(3, 3), stride=(1, 1), padding=(1, 1))
    (LReLU8_1): LeakyReLU(0.2, inplace)
    (bn8_1): BatchNorm2d(64, eps=1e-05, momentum=0.1, affine=True)
    (conv8_2): Conv2d(64, 64, kernel_size=(3, 3), stride=(1, 1), padding=(1, 1))
    (LReLU8_2): LeakyReLU(0.2, inplace)
    (bn8_2): BatchNorm2d(64, eps=1e-05, momentum=0.1, affine=True)
    (deconv8): Conv2d(64, 32, kernel_size=(3, 3), stride=(1, 1), padding=(1, 1))
    (conv9_1): Conv2d(64, 32, kernel_size=(3, 3), stride=(1, 1), padding=(1, 1))
    (LReLU9_1): LeakyReLU(0.2, inplace)
    (bn9_1): BatchNorm2d(32, eps=1e-05, momentum=0.1, affine=True)
    (conv9_2): Conv2d(32, 32, kernel_size=(3, 3), stride=(1, 1), padding=(1, 1))
    (LReLU9_2): LeakyReLU(0.2, inplace)
    (conv10): Conv2d(32, 3, kernel_size=(1, 1), stride=(1, 1))
  )
)
Total number of parameters: 8636387
DataParallel(
  (module): Unet_resize_conv(
    (conv1_1): Conv2d(3, 32, kernel_size=(3, 3), stride=(1, 1), padding=(1, 1))
    (LReLU1_1): LeakyReLU(0.2, inplace)
    (bn1_1): BatchNorm2d(32, eps=1e-05, momentum=0.1, affine=True)
    (conv1_2): Conv2d(32, 32, kernel_size=(3, 3), stride=(1, 1), padding=(1, 1))
    (LReLU1_2): LeakyReLU(0.2, inplace)
    (bn1_2): BatchNorm2d(32, eps=1e-05, momentum=0.1, affine=True)
    (max_pool1): MaxPool2d(kernel_size=(2, 2), stride=(2, 2), dilation=(1, 1), ceil_mode=False)
    (conv2_1): Conv2d(32, 64, kernel_size=(3, 3), stride=(1, 1), padding=(1, 1))
    (LReLU2_1): LeakyReLU(0.2, inplace)
    (bn2_1): BatchNorm2d(64, eps=1e-05, momentum=0.1, affine=True)
    (conv2_2): Conv2d(64, 64, kernel_size=(3, 3), stride=(1, 1), padding=(1, 1))
    (LReLU2_2): LeakyReLU(0.2, inplace)
    (bn2_2): BatchNorm2d(64, eps=1e-05, momentum=0.1, affine=True)
    (max_pool2): MaxPool2d(kernel_size=(2, 2), stride=(2, 2), dilation=(1, 1), ceil_mode=False)
    (conv3_1): Conv2d(64, 128, kernel_size=(3, 3), stride=(1, 1), padding=(1, 1))
    (LReLU3_1): LeakyReLU(0.2, inplace)
    (bn3_1): BatchNorm2d(128, eps=1e-05, momentum=0.1, affine=True)
    (conv3_2): Conv2d(128, 128, kernel_size=(3, 3), stride=(1, 1), padding=(1, 1))
    (LReLU3_2): LeakyReLU(0.2, inplace)
    (bn3_2): BatchNorm2d(128, eps=1e-05, momentum=0.1, affine=True)
    (max_pool3): MaxPool2d(kernel_size=(2, 2), stride=(2, 2), dilation=(1, 1), ceil_mode=False)
    (conv4_1): Conv2d(128, 256, kernel_size=(3, 3), stride=(1, 1), padding=(1, 1))
    (LReLU4_1): LeakyReLU(0.2, inplace)
    (bn4_1): BatchNorm2d(256, eps=1e-05, momentum=0.1, affine=True)
    (conv4_2): Conv2d(256, 256, kernel_size=(3, 3), stride=(1, 1), padding=(1, 1))
    (LReLU4_2): LeakyReLU(0.2, inplace)
    (bn4_2): BatchNorm2d(256, eps=1e-05, momentum=0.1, affine=True)
    (max_pool4): MaxPool2d(kernel_size=(2, 2), stride=(2, 2), dilation=(1, 1), ceil_mode=False)
    (conv5_1): Conv2d(256, 512, kernel_size=(3, 3), stride=(1, 1), padding=(1, 1))
    (LReLU5_1): LeakyReLU(0.2, inplace)
    (bn5_1): BatchNorm2d(512, eps=1e-05, momentum=0.1, affine=True)
    (conv5_2): Conv2d(512, 512, kernel_size=(3, 3), stride=(1, 1), padding=(1, 1))
    (LReLU5_2): LeakyReLU(0.2, inplace)
    (bn5_2): BatchNorm2d(512, eps=1e-05, momentum=0.1, affine=True)
    (deconv5): Conv2d(512, 256, kernel_size=(3, 3), stride=(1, 1), padding=(1, 1))
    (conv6_1): Conv2d(512, 256, kernel_size=(3, 3), stride=(1, 1), padding=(1, 1))
    (LReLU6_1): LeakyReLU(0.2, inplace)
    (bn6_1): BatchNorm2d(256, eps=1e-05, momentum=0.1, affine=True)
    (conv6_2): Conv2d(256, 256, kernel_size=(3, 3), stride=(1, 1), padding=(1, 1))
    (LReLU6_2): LeakyReLU(0.2, inplace)
    (bn6_2): BatchNorm2d(256, eps=1e-05, momentum=0.1, affine=True)
    (deconv6): Conv2d(256, 128, kernel_size=(3, 3), stride=(1, 1), padding=(1, 1))
    (conv7_1): Conv2d(256, 128, kernel_size=(3, 3), stride=(1, 1), padding=(1, 1))
    (LReLU7_1): LeakyReLU(0.2, inplace)
    (bn7_1): BatchNorm2d(128, eps=1e-05, momentum=0.1, affine=True)
    (conv7_2): Conv2d(128, 128, kernel_size=(3, 3), stride=(1, 1), padding=(1, 1))
    (LReLU7_2): LeakyReLU(0.2, inplace)
    (bn7_2): BatchNorm2d(128, eps=1e-05, momentum=0.1, affine=True)
    (deconv7): Conv2d(128, 64, kernel_size=(3, 3), stride=(1, 1), padding=(1, 1))
    (conv8_1): Conv2d(128, 64, kernel_size=(3, 3), stride=(1, 1), padding=(1, 1))
    (LReLU8_1): LeakyReLU(0.2, inplace)
    (bn8_1): BatchNorm2d(64, eps=1e-05, momentum=0.1, affine=True)
    (conv8_2): Conv2d(64, 64, kernel_size=(3, 3), stride=(1, 1), padding=(1, 1))
    (LReLU8_2): LeakyReLU(0.2, inplace)
    (bn8_2): BatchNorm2d(64, eps=1e-05, momentum=0.1, affine=True)
    (deconv8): Conv2d(64, 32, kernel_size=(3, 3), stride=(1, 1), padding=(1, 1))
    (conv9_1): Conv2d(64, 32, kernel_size=(3, 3), stride=(1, 1), padding=(1, 1))
    (LReLU9_1): LeakyReLU(0.2, inplace)
    (bn9_1): BatchNorm2d(32, eps=1e-05, momentum=0.1, affine=True)
    (conv9_2): Conv2d(32, 32, kernel_size=(3, 3), stride=(1, 1), padding=(1, 1))
    (LReLU9_2): LeakyReLU(0.2, inplace)
    (conv10): Conv2d(32, 3, kernel_size=(1, 1), stride=(1, 1))
  )
)
Total number of parameters: 8636387
DataParallel(
  (module): NLayerDiscriminator(
    (model): Sequential(
      (0): Conv2d(3, 64, kernel_size=(4, 4), stride=(2, 2), padding=(2, 2))
      (1): LeakyReLU(0.2, inplace)
      (2): Conv2d(64, 128, kernel_size=(4, 4), stride=(2, 2), padding=(2, 2))
      (3): InstanceNorm2d(128, eps=1e-05, momentum=0.1, affine=False)
      (4): LeakyReLU(0.2, inplace)
      (5): Conv2d(128, 256, kernel_size=(4, 4), stride=(2, 2), padding=(2, 2))
      (6): InstanceNorm2d(256, eps=1e-05, momentum=0.1, affine=False)
      (7): LeakyReLU(0.2, inplace)
      (8): Conv2d(256, 512, kernel_size=(4, 4), stride=(1, 1), padding=(2, 2))
      (9): InstanceNorm2d(512, eps=1e-05, momentum=0.1, affine=False)
      (10): LeakyReLU(0.2, inplace)
      (11): Conv2d(512, 1, kernel_size=(4, 4), stride=(1, 1), padding=(2, 2))
    )
  )
)
Total number of parameters: 2764737
DataParallel(
  (module): NLayerDiscriminator(
    (model): Sequential(
      (0): Conv2d(3, 64, kernel_size=(4, 4), stride=(2, 2), padding=(2, 2))
      (1): LeakyReLU(0.2, inplace)
      (2): Conv2d(64, 128, kernel_size=(4, 4), stride=(2, 2), padding=(2, 2))
      (3): InstanceNorm2d(128, eps=1e-05, momentum=0.1, affine=False)
      (4): LeakyReLU(0.2, inplace)
      (5): Conv2d(128, 256, kernel_size=(4, 4), stride=(2, 2), padding=(2, 2))
      (6): InstanceNorm2d(256, eps=1e-05, momentum=0.1, affine=False)
      (7): LeakyReLU(0.2, inplace)
      (8): Conv2d(256, 512, kernel_size=(4, 4), stride=(1, 1), padding=(2, 2))
      (9): InstanceNorm2d(512, eps=1e-05, momentum=0.1, affine=False)
      (10): LeakyReLU(0.2, inplace)
      (11): Conv2d(512, 1, kernel_size=(4, 4), stride=(1, 1), padding=(2, 2))
    )
  )
)
Total number of parameters: 2764737
-----------------------------------------------
model [SingleGANModel] was created
create web directory ./checkpoints/single_unet_conv_add_bs32_synBN_hdr_unsuperdata_lsgan_vgg/web...
(epoch: 1, iters: 800, time: 0.034) D_A: 0.317 G_A: 0.824 vgg: 0.434 
End of epoch 1 / 200 	 Time Taken: 42 sec
…
norm: instance
output_nc: 3
phase: train
pool_size: 50
print_freq: 100
resize_or_crop: crop
save_epoch_freq: 5
save_latest_freq: 5000
serial_batches: False
skip: 1.0
syn_norm: True
tanh: False
use_avgpool: 0
use_mse: False
use_norm: 1.0
use_wgan: 0.0
vgg: 0
vgg_mean: False
which_direction: AtoB
which_epoch: latest
which_model_netD: basic
which_model_netG: sid_unet_resize
-------------- End ----------------
CustomDatasetDataLoader
dataset [UnalignedDataset] was created
#training images = 799
single
---------- Networks initialized -------------
DataParallel(
  (module): Unet_resize_conv(
    (conv1_1): Conv2d(3, 32, kernel_size=(3, 3), stride=(1, 1), padding=(1, 1))
    (LReLU1_1): LeakyReLU(0.2, inplace)
    (bn1_1): SynchronizedBatchNorm2d(32, eps=1e-05, momentum=0.001, affine=True)
    (conv1_2): Conv2d(32, 32, kernel_size=(3, 3), stride=(1, 1), padding=(1, 1))
    (LReLU1_2): LeakyReLU(0.2, inplace)
    (bn1_2): SynchronizedBatchNorm2d(32, eps=1e-05, momentum=0.001, affine=True)
    (max_pool1): MaxPool2d(kernel_size=(2, 2), stride=(2, 2), dilation=(1, 1), ceil_mode=False)
    (conv2_1): Conv2d(32, 64, kernel_size=(3, 3), stride=(1, 1), padding=(1, 1))
    (LReLU2_1): LeakyReLU(0.2, inplace)
    (bn2_1): SynchronizedBatchNorm2d(64, eps=1e-05, momentum=0.001, affine=True)
    (conv2_2): Conv2d(64, 64, kernel_size=(3, 3), stride=(1, 1), padding=(1, 1))
    (LReLU2_2): LeakyReLU(0.2, inplace)
    (bn2_2): SynchronizedBatchNorm2d(64, eps=1e-05, momentum=0.001, affine=True)
    (max_pool2): MaxPool2d(kernel_size=(2, 2), stride=(2, 2), dilation=(1, 1), ceil_mode=False)
    (conv3_1): Conv2d(64, 128, kernel_size=(3, 3), stride=(1, 1), padding=(1, 1))
    (LReLU3_1): LeakyReLU(0.2, inplace)
    (bn3_1): SynchronizedBatchNorm2d(128, eps=1e-05, momentum=0.001, affine=True)
    (conv3_2): Conv2d(128, 128, kernel_size=(3, 3), stride=(1, 1), padding=(1, 1))
    (LReLU3_2): LeakyReLU(0.2, inplace)
    (bn3_2): SynchronizedBatchNorm2d(128, eps=1e-05, momentum=0.001, affine=True)
    (max_pool3): MaxPool2d(kernel_size=(2, 2), stride=(2, 2), dilation=(1, 1), ceil_mode=False)
    (conv4_1): Conv2d(128, 256, kernel_size=(3, 3), stride=(1, 1), padding=(1, 1))
    (LReLU4_1): LeakyReLU(0.2, inplace)
    (bn4_1): SynchronizedBatchNorm2d(256, eps=1e-05, momentum=0.001, affine=True)
    (conv4_2): Conv2d(256, 256, kernel_size=(3, 3), stride=(1, 1), padding=(1, 1))
    (LReLU4_2): LeakyReLU(0.2, inplace)
    (bn4_2): SynchronizedBatchNorm2d(256, eps=1e-05, momentum=0.001, affine=True)
    (max_pool4): MaxPool2d(kernel_size=(2, 2), stride=(2, 2), dilation=(1, 1), ceil_mode=False)
    (conv5_1): Conv2d(256, 512, kernel_size=(3, 3), stride=(1, 1), padding=(1, 1))
    (LReLU5_1): LeakyReLU(0.2, inplace)
    (bn5_1): SynchronizedBatchNorm2d(512, eps=1e-05, momentum=0.001, affine=True)
    (conv5_2): Conv2d(512, 512, kernel_size=(3, 3), stride=(1, 1), padding=(1, 1))
    (LReLU5_2): LeakyReLU(0.2, inplace)
    (bn5_2): SynchronizedBatchNorm2d(512, eps=1e-05, momentum=0.001, affine=True)
    (deconv5): Conv2d(512, 256, kernel_size=(3, 3), stride=(1, 1), padding=(1, 1))
    (conv6_1): Conv2d(512, 256, kernel_size=(3, 3), stride=(1, 1), padding=(1, 1))
    (LReLU6_1): LeakyReLU(0.2, inplace)
    (bn6_1): SynchronizedBatchNorm2d(256, eps=1e-05, momentum=0.001, affine=True)
    (conv6_2): Conv2d(256, 256, kernel_size=(3, 3), stride=(1, 1), padding=(1, 1))
    (LReLU6_2): LeakyReLU(0.2, inplace)
    (bn6_2): SynchronizedBatchNorm2d(256, eps=1e-05, momentum=0.001, affine=True)
    (deconv6): Conv2d(256, 128, kernel_size=(3, 3), stride=(1, 1), padding=(1, 1))
    (conv7_1): Conv2d(256, 128, kernel_size=(3, 3), stride=(1, 1), padding=(1, 1))
    (LReLU7_1): LeakyReLU(0.2, inplace)
    (bn7_1): SynchronizedBatchNorm2d(128, eps=1e-05, momentum=0.001, affine=True)
    (conv7_2): Conv2d(128, 128, kernel_size=(3, 3), stride=(1, 1), padding=(1, 1))
    (LReLU7_2): LeakyReLU(0.2, inplace)
    (bn7_2): SynchronizedBatchNorm2d(128, eps=1e-05, momentum=0.001, affine=True)
    (deconv7): Conv2d(128, 64, kernel_size=(3, 3), stride=(1, 1), padding=(1, 1))
    (conv8_1): Conv2d(128, 64, kernel_size=(3, 3), stride=(1, 1), padding=(1, 1))
    (LReLU8_1): LeakyReLU(0.2, inplace)
    (bn8_1): SynchronizedBatchNorm2d(64, eps=1e-05, momentum=0.001, affine=True)
    (conv8_2): Conv2d(64, 64, kernel_size=(3, 3), stride=(1, 1), padding=(1, 1))
    (LReLU8_2): LeakyReLU(0.2, inplace)
    (bn8_2): SynchronizedBatchNorm2d(64, eps=1e-05, momentum=0.001, affine=True)
    (deconv8): Conv2d(64, 32, kernel_size=(3, 3), stride=(1, 1), padding=(1, 1))
    (conv9_1): Conv2d(64, 32, kernel_size=(3, 3), stride=(1, 1), padding=(1, 1))
    (LReLU9_1): LeakyReLU(0.2, inplace)
    (bn9_1): SynchronizedBatchNorm2d(32, eps=1e-05, momentum=0.001, affine=True)
    (conv9_2): Conv2d(32, 32, kernel_size=(3, 3), stride=(1, 1), padding=(1, 1))
    (LReLU9_2): LeakyReLU(0.2, inplace)
    (conv10): Conv2d(32, 3, kernel_size=(1, 1), stride=(1, 1))
  )
)
Total number of parameters: 8636387
DataParallel(
  (module): NLayerDiscriminator(
    (model): Sequential(
      (0): Conv2d(3, 64, kernel_size=(4, 4), stride=(2, 2), padding=(2, 2))
      (1): LeakyReLU(0.2, inplace)
      (2): Conv2d(64, 128, kernel_size=(4, 4), stride=(2, 2), padding=(2, 2))
      (3): InstanceNorm2d(128, eps=1e-05, momentum=0.1, affine=False)
      (4): LeakyReLU(0.2, inplace)
      (5): Conv2d(128, 256, kernel_size=(4, 4), stride=(2, 2), padding=(2, 2))
      (6): InstanceNorm2d(256, eps=1e-05, momentum=0.1, affine=False)
      (7): LeakyReLU(0.2, inplace)
      (8): Conv2d(256, 512, kernel_size=(4, 4), stride=(1, 1), padding=(2, 2))
      (9): InstanceNorm2d(512, eps=1e-05, momentum=0.1, affine=False)
      (10): LeakyReLU(0.2, inplace)
      (11): Conv2d(512, 1, kernel_size=(4, 4), stride=(1, 1), padding=(2, 2))
    )
  )
)
Total number of parameters: 2764737
-----------------------------------------------
model [SingleGANModel] was created
create web directory ./checkpoints/single_unet_conv_add_bs14_synBN_hdr_unsuperdata_lsgan_fcn/web...
(epoch: 1, iters: 700, time: 0.107) D_A: 0.279 G_A: 1.084 fcn: 0.292 
End of epoch 1 / 200 	 Time Taken: 98 sec
…
